simple_model.onnx (onnx, 754 bytes, 1 tensors)

StatefulPartitionedCall/simple_model_1/dense_1/Cast/ReadVariableOp:0 f4 [5, 10]
000000 40 af 75 bc 5a d9 9f 3e 9c 79 32 3e 78 48 bc bd
       -0.014995396 0.31220514 0.17429203 -0.0919351
000010 2e 10 d6 3e 66 83 f2 be 57 14 11 bf 54 37 92 be
       0.4180922 -0.47365874 -0.5667166 -0.28557837
000020 54 ab 70 be 07 69 1e bf 39 12 0e 3f d6 41 ce 3e
       -0.23502856 -0.6187901 0.55496556 0.40284604
000030 04 18 a1 3e 20 51 5c 3d 7c 3d 3e 3e c0 e1 6d bd
       0.31463635 0.053788304 0.18578142 -0.05807662
000040 1c a1 20 be 30 cd 0e bd 2b a0 1e 3f 3a 38 9d 3e
       -0.15686458 -0.03486365 0.61963147 0.3070696
000050 a0 c0 11 be bc 8e 0e 3e 50 0b 49 bd 2a 99 b6 be
       -0.14233637 0.13921636 -0.049083054 -0.3566373
000060 d0 75 aa 3e 35 a6 21 3f 10 73 54 bd fa 41 fb 3e
       0.3329301 0.63144237 -0.051867545 0.49073774
000070 8e 44 0e bf ba 56 71 be c0 fc 4c bd 48 43 39 3e
       -0.55573356 -0.2356824 -0.05004573 0.18092072
000080 a3 10 bd be 40 48 6a bd e0 58 69 3d 91 c6 06 3f
       -0.36926755 -0.05719781 0.056969523 0.5264674
000090 90 08 7e 3e 52 3b ac 3e a9 68 1c 3f 59 dd 0a 3f
       0.24807954 0.33639008 0.610972 0.54244
0000a0 8a 2b e1 3e 74 b6 5d be da 5c ee be 58 2c ae 3d
       0.4397853 -0.21651632 -0.46555215 0.08504552
0000b0 40 bb c2 be 04 c2 96 3e 36 84 9c 3e de e0 c9 3e
       -0.38033485 0.29444897 0.3056962 0.39429373
0000c0 b6 2f f8 3e 88 27 18 bf
       0.484739 -0.5943532
